{"modelTopology":{"class_name":"Model","config":{"name":"model7","layers":[{"name":"fv_in","class_name":"InputLayer","config":{"batch_input_shape":[null,5,5,1],"dtype":"float32","sparse":false,"name":"fv_in"},"inbound_nodes":[]},{"name":"fv_2d","class_name":"Conv2D","config":{"filters":1,"kernel_initializer":{"class_name":"VarianceScaling","config":{"scale":1,"mode":"fan_avg","distribution":"normal","seed":null}},"kernel_regularizer":null,"kernel_constraint":null,"kernel_size":[1,1],"strides":[1,1],"padding":"same","data_format":"channels_last","dilation_rate":[1,1],"activation":"linear","use_bias":true,"bias_initializer":{"class_name":"Zeros","config":{}},"bias_regularizer":null,"activity_regularizer":null,"bias_constraint":null,"name":"fv_2d","trainable":true},"inbound_nodes":[[["fv_in",0,0,{}]]]},{"name":"fv_bn","class_name":"BatchNormalization","config":{"axis":-1,"momentum":0.99,"epsilon":0.001,"center":true,"scale":true,"beta_initializer":{"class_name":"Zeros","config":{}},"gamma_initializer":{"class_name":"Ones","config":{}},"moving_mean_initializer":{"class_name":"Zeros","config":{}},"moving_variance_initializer":{"class_name":"Ones","config":{}},"beta_regularizer":null,"gamma_regularizer":null,"beta_constraint":null,"gamma_constraint":null,"name":"fv_bn","trainable":true},"inbound_nodes":[[["fv_2d",0,0,{}]]]},{"name":"fv_rl","class_name":"Activation","config":{"activation":"relu","name":"fv_rl","trainable":true},"inbound_nodes":[[["fv_bn",0,0,{}]]]},{"name":"fv_fl","class_name":"Flatten","config":{"name":"fv_fl","trainable":true},"inbound_nodes":[[["fv_rl",0,0,{}]]]},{"name":"fv_de","class_name":"Dense","config":{"units":1,"activation":"tanh","use_bias":true,"kernel_initializer":{"class_name":"VarianceScaling","config":{"scale":1,"mode":"fan_avg","distribution":"normal","seed":null}},"bias_initializer":{"class_name":"Zeros","config":{}},"kernel_regularizer":null,"bias_regularizer":null,"activity_regularizer":null,"kernel_constraint":null,"bias_constraint":null,"name":"fv_de","trainable":true},"inbound_nodes":[[["fv_fl",0,0,{}]]]}],"input_layers":[["fv_in",0,0]],"output_layers":[["fv_de",0,0]]},"keras_version":"tfjs-layers 4.19.0","backend":"tensor_flow.js"},"weightsManifest":[{"paths":["weights.bin"],"weights":[{"name":"fv_2d/kernel","shape":[1,1,1,1],"dtype":"float32"},{"name":"fv_2d/bias","shape":[1],"dtype":"float32"},{"name":"fv_bn/gamma","shape":[1],"dtype":"float32"},{"name":"fv_bn/beta","shape":[1],"dtype":"float32"},{"name":"fv_de/kernel","shape":[25,1],"dtype":"float32"},{"name":"fv_de/bias","shape":[1],"dtype":"float32"},{"name":"fv_bn/moving_mean","shape":[1],"dtype":"float32"},{"name":"fv_bn/moving_variance","shape":[1],"dtype":"float32"}]}],"format":"layers-model","generatedBy":"TensorFlow.js tfjs-layers v4.19.0","convertedBy":null}